mnist.tflite (tflite, 408348 bytes, 4 tensors)

sequential_6/dense_12/MatMul/ReadVariableOp/transpose f4 [128, 784]
000000 c0 1f e8 ba 4b 46 3f bd 28 31 2d bc 18 de 21 3c
       -0.0017709658 -0.046697896 -0.010570802 0.009879611
000010 7a e1 b8 bc 3c db c3 bc 5c 35 8e bc d2 4a b2 bc
       -0.022568453 -0.02390825 -0.017359428 -0.021764193
000020 14 aa dc bc 53 0d 97 3d 97 15 9e 3d fe 79 49 3d
       -0.026936568 0.07375588 0.07718962 0.049188606
000030 54 d8 67 3d e4 c3 48 3d d8 c1 b0 3a e7 98 da 3c
       0.05660279 0.04901494 0.0013485504 0.026684238
000040 0a c2 59 3d f2 33 a5 bd f8 f9 5f bc b0 67 99 bb
       0.053163566 -0.080665484 -0.013670437 -0.00468155
000050 32 73 59 3d 32 78 03 3d 80 1d ca ba a4 d5 94 3c
       0.053088374 0.03209705 -0.0015420169 0.018168278
000060 44 b5 8e bd 2e 29 6f 3d b8 3d 96 3c 80 27 c1 3b
       -0.069681674 0.05838888 0.018339977 0.0058946013
000070 40 62 ee bb e2 a9 75 3d 9a 8f 76 bd 9c 1d c2 bc
       -0.007274896 0.059976466 -0.060195543 -0.02369576
000080 df e9 0e 3d 22 d6 0b 3d 6e 39 59 3e 05 e2 17 3e
       0.034891006 0.03413976 0.21213314 0.14832313
000090 29 64 e9 3c be 48 fd 3b 76 9c 8e 3e 95 04 1e 3e
       0.028490143 0.007729619 0.27853745 0.15431435
0000a0 c1 99 53 3d 18 5b 53 3d bb 34 9a 3d 44 0b 88 3d
       0.051660303 0.051600546 0.07529589 0.06642774
0000b0 51 de bc 3d d7 64 87 3c 44 2b 86 3e 57 0a 63 3e
       0.09222091 0.016527576 0.26204884 0.22171913
0000c0 00 f6 68 3e 37 88 fd 3d 6e 24 8f 3d c7 4d 19 3e
       0.22750092 0.123794965 0.0698937 0.14971076
0000d0 ba ac 28 3d f8 a0 24 3c c4 4a 9d 3c d4 3d c4 3c
       0.04118035 0.010048144 0.01920069 0.023955263
0000e0 d4 99 c2 3c 10 94 4b bd ef fb ea bc c5 ed 86 3d
       0.023754992 -0.04970175 -0.028684584 0.0658832
0000f0 09 04 8b bc ae 3c 32 3e 92 b2 ba 3e de f2 d3 3e
       -0.016969698 0.1740596 0.36464363 0.4139623
000100 57 3c 56 3e 77 fd 7f 3e f2 24 a8 3e f8 15 c4 3e
       0.20921455 0.24999033 0.32840687 0.3829801
000110 9b 2a c2 3e 0e 3b c9 3e 45 b0 ab 3e dd 8a d5 3e
       0.3792313 0.39302868 0.3353292 0.41707507
000120 90 3c 81 3e 8d 76 2d 3e b2 88 11 bc b5 ca 37 3d
       0.25241518 0.16939755 -0.008882688 0.04487105
000130 36 f2 e1 3b 3b 99 f8 3d ee 89 5e 3d fe b9 56 3c
       0.006895329 0.121386014 0.05433076 0.013105867
000140 4b 9d ee 3d e7 69 9f 3c b0 ed 67 bc 2c db dd 3c
       0.11651095 0.019459678 -0.01415579 0.027082048
000150 fe ce b2 bc 00 f3 33 3c 54 80 e5 3d 13 ce b1 3d
       -0.021827217 0.010983229 0.11206117 0.08681884
000160 6f 7f ac 3c b5 b9 45 3e 78 23 9e 3e 87 e2 32 3e
       0.021056859 0.19309123 0.30886436 0.17469226
000170 c5 9e 46 3e c7 b2 74 3e df 01 a7 3d 63 07 72 bd
       0.19396503 0.23896323 0.08154654 -0.059089076
000180 36 69 70 bd 74 79 df 3d 82 2e 3f 3b 68 7b 96 3d
       -0.058694087 0.10911837 0.0029172008 0.073477566
000190 a9 6c a0 3d 58 b5 ac 3c c0 34 1b be f6 36 05 3b
       0.07833225 0.021082565 -0.15156841 0.0020326949
0001a0 61 8b 2f bd a8 73 7f bd 0a f4 1a bd 51 97 a7 3c
       -0.04285753 -0.062366158 -0.03783039 0.020457895
0001b0 2f 86 66 3d 0f 8c fd 3d 77 f7 49 3e d2 60 90 bd
       0.05628031 0.1238023 0.19723307 -0.07049717
0001c0 5e b3 23 bd c0 a3 b9 bc ae 4a 13 3e b4 fa 0f 3d
       -0.03996598 -0.02266109 0.14383957 0.0351512
0001d0 5f 20 17 3e 85 67 71 3e b7 2d 37 3e 23 31 32 3e
       0.14758442 0.23574646 0.17888533 0.17401557
0001e0 b4 af 0d 3e 89 9d 42 3e 56 60 0c 3e 3b 06 6c bb
       0.13836557 0.19005407 0.13708624 -0.0036014456
0001f0 74 35 0f 3e 0e 92 9b 3d ae 48 d0 3c 2f 55 74 bd
       0.13985234 0.07596217 0.025425281 -0.05965155
000200 03 e5 0a 3c 04 9f 4b 3d e8 d9 1a be 7b 27 18 3b
       0.008477452 0.049712196 -0.15122187 0.0023216892
000210 c5 d6 cf bd ec b6 a5 bd 47 58 93 bd 73 1d 97 bd
       -0.10148386 -0.0809153 -0.07194572 -0.07378664
000220 bd 50 38 be 59 76 d0 bd b9 01 02 3e fd fd 96 3d
       -0.17999549 -0.10178823 0.1269597 0.07372663
000230 f3 2b 34 bd 4a 6f 25 3d c3 f9 62 3e 53 74 84 3d
       -0.043987226 0.040389337 0.22165589 0.064674996
000240 e1 10 47 3e 05 50 cf 3d 99 8d c1 3b ed 83 9b 3d
       0.19440033 0.101226844 0.0059067723 0.07593522
000250 8f 95 23 3e e9 42 97 3d be 95 58 3d bf b9 f3 bd
       0.15975021 0.07385809 0.05287718 -0.11900663
000260 6e fa 5e 3d 85 5c f5 3b 89 4f 91 3d 46 7c db 3c
       0.054438047 0.007487836 0.07095248 0.026792657
000270 f4 43 eb bb 99 91 2a be 0e 22 20 be b8 2a 77 bd
       -0.0071797315 -0.16657104 -0.15637991 -0.060343474
000280 ce 37 97 bd be cd 27 bd 7d 7b 8f bd dc 51 64 3a
       -0.07383691 -0.040967695 -0.070059754 0.0008709708
000290 f7 66 5b 3b 53 72 3e 3d e6 4a c0 3d a2 57 1f 3e
       0.003347812 0.046495747 0.09389286 0.15560773
0002a0 57 a4 9f 3d a0 8a 01 bd 0f 6d b3 bd 5a 9b 9e bd
       0.07795017 -0.031626344 -0.08761036 -0.07744475
0002b0 93 46 bd 3d 5b e1 f1 3c 63 ea ab bd 62 d2 da bd
       0.092419766 0.029526403 -0.08394315 -0.106846586
0002c0 38 07 29 be 12 ad 1a be 9d 47 d5 bb b3 d1 d8 bd
       -0.1650666 -0.15105084 -0.006508781 -0.10586872
0002d0 e1 26 fc 3b 5b fb 14 bd 88 b4 33 bc 5f 8e d8 bc
       0.0076950644 -0.036372524 -0.010968335 -0.026435075
0002e0 70 95 9d bd 49 69 0f be a3 a0 2d be 9d 43 50 be
       -0.076945186 -0.14005007 -0.1695581 -0.20338292
0002f0 c5 d8 65 be 5b 78 95 bd a6 17 79 3d 26 f8 fe bd
       -0.22445972 -0.072983466 0.06081357 -0.12449674
000300 f5 8a fe bc b0 6b 50 3d 98 6d 82 3d 6d 22 26 bb
       -0.03107212 0.05088395 0.063685596 -0.002535011
000310 6f 7b a5 3d 64 e9 85 bc 99 30 d0 bd 3b c6 41 be
       0.08080184 -0.01634664 -0.10165519 -0.18923275
000320 b3 45 1b 3d cd a5 02 be 09 29 bd bd 15 e4 9c bd
       0.037908267 -0.1275856 -0.092363425 -0.07660691
000330 b7 df 9d bd 5f a2 ef bd 2c 3a 98 bb c9 9e 26 3d
       -0.07708686 -0.11700892 -0.0046456065 0.040678773
000340 aa a8 88 3d 82 eb af 3d 06 69 b7 3d f3 c5 12 3d
       0.06672795 0.085898414 0.089555785 0.03583331
000350 a3 2e 3c be b3 ae 22 be 27 d8 03 be 3c 2d 44 be
       -0.18377165 -0.15886955 -0.12875424 -0.1915788
000360 f8 89 1a bd f9 2c 2f bd 34 45 78 bc f3 a7 72 be
       -0.037729234 -0.0427675 -0.015153218 -0.2369688
000370 5a 4c a3 bd 8c d1 0d 3d 88 17 c4 bd c3 53 25 39
       -0.07973547 0.034623668 -0.09574801 0.0001576683
000380 30 ca 61 bd 2b 49 aa 3d e1 86 69 3c a7 83 b3 bd
       -0.05512446 0.08314737 0.014253349 -0.08765345
000390 b5 57 71 3d f7 0a bd bc b6 4f d1 bd b6 f7 f7 bc
       0.058921535 -0.023076518 -0.10220282 -0.030269485
0003a0 f7 76 03 be 76 5c a1 bd 90 cf ae 3d 57 9a ad bd
       -0.1283835 -0.07878964 0.08535683 -0.084767036
0003b0 20 40 35 bd ca e0 7b 3d a7 4e 3e bc ad 41 9e bd
       -0.044250607 0.061493672 -0.011615432 -0.077273704
0003c0 af 72 cc bd b4 59 9e bd 85 e2 0f be f1 ea 75 bd
       -0.09982812 -0.07731953 -0.14051254 -0.06003851
0003d0 b8 a6 7c bd c1 f6 8e bd d1 ac d9 bd 06 32 09 be
       -0.061682433 -0.06980658 -0.10628665 -0.13397989
0003e0 ee 1b 7d be 82 55 2c bd ac f4 19 3c 3c 81 47 3d
       -0.24717686 -0.042073734 0.009396713 0.048707232
0003f0 5e e2 91 bd 06 4d bc bc 23 15 86 bd c3 5d e0 3d
       -0.07123254 -0.022985946 -0.06547 0.10955384

sequential_6/dense_12/MatMul_bias f4 [128]
000000 d5 16 f1 3c 6f 80 96 3d 20 20 94 3d 94 69 34 bc
       0.029429832 0.073487155 0.0723269 -0.0110115
000010 2c a8 fb 3c 66 ab 98 3d cf 90 35 3e ee 17 10 3d
       0.030719839 0.07454567 0.17731021 0.03517907
000020 84 ab bc 3c de 0f b9 bd b3 e5 cc bb bd 9a 23 be
       0.023031004 -0.090362296 -0.006252968 -0.15976997
000030 bf f5 8c bd 13 3e 2e 3e c5 81 46 3e 31 90 dc 3d
       -0.0688281 0.17015867 0.1938544 0.1076969
000040 71 4e 1b 3c f3 c7 30 bd 3e c3 2e bb 7d 6d ea 3d
       0.009479151 -0.043159436 -0.0026666666 0.114466645
000050 23 ff 2a 3c c5 67 bc bc 6b cc 6a bd 77 04 86 bc
       0.010436806 -0.0229987 -0.057323854 -0.01635955
000060 1a fc 8c 3d c2 38 a5 bd 7d c7 8c bc 4f d9 91 bd
       0.06884022 -0.08067466 -0.017184967 -0.071215264
000070 14 9e 34 3e c1 41 b1 bc 4e 3e 8e 3d a7 e1 24 3e
       0.17638427 -0.0216378 0.069454774 0.16101705
000080 56 9e 9f 3d 74 75 80 3d cd 9e 01 3e 43 1d 78 be
       0.07793872 0.062724024 0.12658234 -0.24229912
000090 70 6b 07 be e5 82 3e 3d a4 48 95 3d 30 a9 a6 3e
       -0.13224578 0.04651155 0.07289246 0.32550955
0000a0 0c b8 91 bd 4f 79 5d 3d 4f 34 7f 3d 40 8d e6 3d
       -0.07115182 0.054070767 0.062305745 0.1125741
0000b0 33 40 34 3d 83 49 14 3d 10 b3 6b 3d 7a f0 1d bd
       0.044006538 0.03620292 0.057543814 -0.038559414
0000c0 48 b7 f6 3d d3 68 cd 3c 10 97 51 3d e4 cb 21 3d
       0.12046677 0.025074398 0.051169455 0.039501086
0000d0 b1 67 04 3e af 5e b2 bd 92 d7 3d 3d 98 fb db 3c
       0.1293018 -0.08709466 0.046348162 0.026853368
0000e0 ef e0 5c be 14 3c 5e 3d 1a 49 93 bd 55 dd be bd
       -0.2157018 0.054256514 -0.071916774 -0.093195595
0000f0 c5 1b 60 be e4 8c 4b 3e a9 38 09 3c db 67 38 be
       -0.21885593 0.19877964 0.008375325 -0.18008368
000100 cf 18 9d bc 41 41 f5 bd 9a 2f d2 bd 46 96 55 bd
       -0.019176869 -0.11975337 -0.102629855 -0.052145265
000110 e8 24 b2 3d fe 6b d1 3d c3 e4 22 be b1 95 49 3e
       0.086984456 0.10225676 -0.15907578 0.19686009
000120 59 05 86 bd c9 db 18 be a2 f8 ce 3d 1f f3 c0 3c
       -0.06543989 -0.14927591 0.10106017 0.02355343
000130 ed 25 c7 bc a6 c0 61 3d e7 98 f2 3d bd de e8 3d
       -0.024310077 0.055115364 0.1184557 0.11370609
000140 ca 16 41 3d 68 e6 f7 bd ce a5 2d 3e 99 17 1f 3d
       0.047140874 -0.121044934 0.1695778 0.038840864
000150 f6 d1 49 3d fd f5 a3 3d 14 6c 9c bd 95 63 6c 3e
       0.0492725 0.08005903 -0.07637802 0.23084863
000160 33 fb 17 bc df e9 dc bc 9a e2 31 be 5f db 40 3d
       -0.009276199 -0.026966987 -0.17371598 0.04708421
000170 f7 b3 a1 3c 99 b4 2f 3a a4 15 f9 bd 74 c1 be bc
       0.019739134 0.00067026314 -0.12162331 -0.023285605
000180 11 58 84 bd c2 5f 85 3d 7e fd 8a bd 52 78 9a bd
       -0.0646211 0.06512405 -0.06786631 -0.075424805
000190 fb c1 33 be e2 f7 6e 3d 31 ff f2 3d ff ba 00 3e
       -0.17554466 0.05834187 0.1186508 0.12571333
0001a0 4f 6c 9d bc 9e 9e 28 3d 96 ec ef 3c 54 30 b0 3d
       -0.019216685 0.041166894 0.029287618 0.08602968
0001b0 26 d4 9b 3d c9 03 dd 3d ac a1 3d 3e b1 98 8b bd
       0.076088235 0.107917376 0.18518704 -0.06816233
0001c0 77 7f ae 3b 6c cc ac bd fe 4a 21 bd 5e b9 1c be
       0.0053252536 -0.08437428 -0.03937816 -0.15305087
0001d0 1e 3f e4 bd 39 67 40 3e ef 28 af bc 28 ae 91 3e
       -0.11144851 0.18789376 -0.021381823 0.28453183
0001e0 15 6b b9 3d ae 06 30 3d 94 7b 3a 3d a3 8b 80 bd
       0.090536274 0.04297512 0.04552801 -0.062766336
0001f0 89 1d 52 3e 66 84 be bd f5 f0 3b bc 96 b4 0e 3e
       0.2051908 -0.09302597 -0.011471023 0.13936076

sequential_6/dense_13/MatMul/ReadVariableOp/transpose f4 [10, 128]
000000 bb 5d b7 be 54 26 65 3e 84 84 20 3e 7e 8a fb bc
       -0.35813698 0.22377902 0.1567555 -0.030705687
000010 46 25 8e 3e b6 d3 64 3e 66 06 5e be c2 02 4f 3e
       0.27762812 0.22346386 -0.21682128 0.20215896
000020 d0 a5 7e 3e 68 92 4a 3e 50 bd 19 3e 35 c9 1e bf
       0.2486794 0.19782412 0.15013623 -0.6202577
000030 56 3e 03 3e 58 f6 97 be 5c 32 84 be d3 c7 b3 3e
       0.12816748 -0.29680133 -0.2581967 0.3511339
000040 cf 03 98 be e7 b1 bb be 30 71 82 bd e9 fe 39 3d
       -0.29690406 -0.36659166 -0.06369245 0.045409117
000050 32 51 9e 3e c1 0a 5a 3e a8 97 8d 3d f1 a1 c9 be
       0.30921322 0.21293165 0.06913692 -0.39381364
000060 9b b3 7c 3e 8f f4 e2 be f9 c9 c9 3e 2f 2d 2f 3c
       0.24677889 -0.44327208 0.39411905 0.010691925
000070 3a 51 fd bd 28 b7 1f be 34 d2 45 bf d4 d8 8b 3e
       -0.12369008 -0.15597212 -0.7727387 0.27313864
000080 c1 54 15 3e 06 fd 00 bd f0 31 b8 be 65 b8 ae 3d
       0.14583112 -0.031491302 -0.359756 0.08531264
000090 b0 d2 b4 be 3d e2 d1 3d da 9e 0f bf 5e d4 1c bd
       -0.35316992 0.1024823 -0.56101763 -0.038288467
0000a0 ed 45 ed 3d 2e 40 d9 3e fa 83 c5 3d 4d b1 b1 bd
       0.11585603 0.42431778 0.09644313 -0.086763956
0000b0 8e d6 3d be c5 54 20 3e d0 06 e1 be f3 81 29 3e
       -0.18538877 0.15657337 -0.4395051 0.16553478
0000c0 f8 b2 9b 3e 40 15 c0 be 6b e9 a3 be a2 55 2d bd
       0.3040998 -0.37516212 -0.3201402 -0.042317994
0000d0 68 bd 87 3e 56 d9 d9 be 28 ec c4 bd 8d 3c 71 be
       0.26511693 -0.42548627 -0.09615356 -0.23558255
0000e0 6e 21 08 3e f9 4f b4 bd 39 f4 17 bf c8 b0 6f 3e
       0.13294002 -0.08804316 -0.5935703 0.2340728
0000f0 dc c5 9c be 0c 1c 02 3e 95 af 10 be 9b 92 01 3e
       -0.30619705 0.12706012 -0.14129479 0.12653582
000100 7f c3 a5 bb 18 1e 37 3e 36 42 4b 3e 6d 3d c1 3e
       -0.0050587053 0.17882574 0.19849476 0.37742177
000110 11 8d 67 be f3 a7 9c be d2 61 39 be f3 bf 26 be
       -0.22612406 -0.30596885 -0.18103722 -0.1628416
000120 0c 5b b0 be cc 33 51 be da 9a 8f be 55 1b 83 be
       -0.34444463 -0.20429915 -0.2804783 -0.2560679
000130 10 ba 68 be cf 89 d9 be c1 60 51 be d5 5c 55 3d
       -0.22727227 -0.42487952 -0.20447065 0.052090485
000140 01 6c 87 be 10 1f 34 3e c2 06 b2 be f0 09 61 be
       -0.26449588 0.17589974 -0.3477078 -0.21976447
000150 4e 2f 07 be 82 a8 57 3e 5b 53 d9 be e5 68 be be
       -0.13201639 0.21060374 -0.42446408 -0.37189403
000160 df 5f 85 bb 40 95 27 be 0a 86 4c be 96 2c 87 be
       -0.0040702666 -0.16365528 -0.19973007 -0.26401204
000170 74 8a f2 be 68 a8 85 3e 16 34 af be 63 a0 43 3e
       -0.47371256 0.26105046 -0.34219426 0.19104151
000180 86 ae 24 bf a9 6c 2c 3e aa 56 8e bd 34 1b a4 be
       -0.643288 0.16838326 -0.069501236 -0.32052004
000190 2a 15 26 3e 2e aa df be 7a d0 b2 be 4b 1f a1 3d
       0.16219011 -0.43684524 -0.3492468 0.07867297
0001a0 69 5f 88 3e fd 8a 89 3e b5 e5 8a be b5 54 23 bf
       0.26635292 0.26863852 -0.27128378 -0.6380113
0001b0 12 bb 14 3e 57 20 bc bd 24 75 a6 be a0 4e f4 be
       0.14524487 -0.09185856 -0.32511246 -0.47716236
0001c0 74 dc 1d 3e 43 8e 1a 3e a1 6c ec bd 05 d3 de 3b
       0.15416127 0.15093331 -0.11544157 0.006800058
0001d0 40 28 15 3e bb 44 27 3e c0 a5 8e bd bd 22 fe bd
       0.14566135 0.16334812 -0.06965208 -0.124089696
0001e0 2e 67 3d bd af 3e ec be 4c 1b 40 3e a5 52 05 bf
       -0.046240978 -0.46141574 0.18760413 -0.5207923
0001f0 00 b3 db bd 7f 27 df be e3 fb a0 be 67 47 97 be
       -0.10727501 -0.4358482 -0.31442174 -0.29546663
000200 cd 13 9d 3e 97 64 dc 3e 76 62 52 3d e1 9f 8e 3d
       0.3067917 0.43045494 0.05136343 0.06964088
000210 99 a4 01 bf e3 d3 1f 3e c9 94 9e 3e 12 d2 85 be
       -0.5064178 0.15608172 0.3097289 -0.26136833
000220 c0 a7 05 bf 50 e3 9c bd 11 90 64 3e d2 56 d8 be
       -0.5220909 -0.07660544 0.22320582 -0.4225374
000230 35 9f e5 be 6b 87 42 bd 7a b1 c6 3c 75 71 bc 3d
       -0.44848028 -0.047492426 0.02425455 0.09201328
000240 bc 1a b8 3e 22 f0 ab bd ff ee 2f be 07 d6 16 3f
       0.35957897 -0.08395411 -0.17181014 0.5892033
000250 86 00 b9 3d 45 69 19 be 98 24 93 bd 67 39 12 bf
       0.09033303 -0.14981563 -0.07184714 -0.5711884
000260 e0 8b ce bd d0 86 d4 3d 65 72 85 be db 88 b4 bd
       -0.10085273 0.10377276 -0.2606384 -0.088151656
000270 b2 3b ae be 99 e3 51 3e 79 8b 06 3e 65 87 cb 3e
       -0.3402992 0.20496978 0.13139142 0.39751735
000280 fb 41 e6 be 6f 2d 4c bf 20 c7 fe 3d a3 de 9b bd
       -0.44972214 -0.79756826 0.12440324 -0.07610824
000290 ac e4 5b 3e 15 75 91 be 80 a4 9d 3e 14 1c 00 bf
       0.2147395 -0.2840964 0.30789566 -0.50042844
0002a0 28 6b 2f 3d 35 ac a2 3e 9b a9 94 be d8 4c d6 be
       0.0428268 0.3177201 -0.2903565 -0.41855502
0002b0 1b 66 10 3e 67 75 12 bf aa 23 ba 3e 24 db e7 be
       0.1410145 -0.5721039 0.36355335 -0.4528438
0002c0 0d bf 9e 3e 01 e9 c5 be c7 4b d3 bd e9 d1 01 3f
       0.31005135 -0.3865433 -0.10317188 0.5071092
0002d0 22 11 dc 3d 2c b6 c7 3d b2 9a 88 3e fa fe 10 3e
       0.10745455 0.097515434 0.26680523 0.14159766
0002e0 9d 5a 6b bd 40 58 94 be 2a 4a 14 bd 9a e3 52 3e
       -0.057459462 -0.2897358 -0.03620354 0.20594636
0002f0 ae 51 eb bd 26 48 86 bd 94 72 3c 3e f1 ad 04 be
       -0.114901885 -0.0655673 0.18403083 -0.12956978
000300 d1 75 2f bd a7 ff d6 be b5 9a ab bd e0 18 cb be
       -0.042836968 -0.41991922 -0.083791174 -0.39667416
000310 3f cb 80 3e ed 98 ce 3d a2 6f 6b 3c 3c 54 26 3d
       0.25155064 0.10087762 0.014369877 0.040607676
000320 ca bb b1 3d d4 f5 69 3e 9a 5d f3 be 63 82 46 3e
       0.08678396 0.22847682 -0.4753235 0.19385676
000330 00 d0 8b 3e c2 30 3d 3e 36 6a 22 bf 18 d5 c6 3c
       0.2730713 0.18475631 -0.63443315 0.024271533
000340 8a 95 dc 3d 04 fe 1b be 88 3c 09 bf 3f cf 32 bd
       0.1077071 -0.15233618 -0.5360799 -0.043654677
000350 d0 7e 8e 3e 94 0a 05 bf 3a 0b 72 bd 01 54 de be
       0.27831125 -0.51969266 -0.059092738 -0.43423465
000360 09 ce b1 bd a0 88 6c 3d 8f ca 77 be 3c 3a 4e 3e
       -0.08681876 0.057747483 -0.24198364 0.20139402
000370 32 42 94 3b bd f4 a8 be a7 86 36 3e eb 97 a1 3d
       0.0045244927 -0.3299922 0.17824803 0.07890304
000380 4c 21 73 3d 5d c8 91 3b 80 53 43 be a2 a1 b1 be
       0.059357926 0.004448934 -0.19074821 -0.3469363
000390 3d 24 1b bf 22 44 1a 3e 75 c8 1e 3e 18 48 fe 3c
       -0.6060217 0.15065053 0.15506156 0.031040236
0003a0 e9 45 0e bf 60 0f 55 3c 4a 73 9f 3e f9 40 55 3e
       -0.55575424 0.013004154 0.31142646 0.20825566
0003b0 ef 5c ce 3d 41 e8 5e 3e 7c 58 6e be 0a 02 a9 be
       0.100763194 0.21768285 -0.23275942 -0.33009368
0003c0 38 63 10 bf bd dc 13 bf 3e ba 37 be a4 1c ae 3d
       -0.56401396 -0.57758695 -0.1794214 0.085015565
0003d0 20 f4 91 bd 44 c2 d6 bd 67 b3 7a 3d e9 68 c5 3d
       -0.07126641 -0.10486272 0.061206248 0.09639151
0003e0 1f ad cb 3e 1a 33 cc 3e 05 b4 7c be 02 3a 8c be
       0.39780518 0.39882737 -0.24678047 -0.27388006
0003f0 df f0 a8 3e 24 92 2c 3e 7c 8b 08 3f 92 8a 5d 3d
       0.3299627 0.16852623 0.53337836 0.05408723

sequential_6/dense_13/MatMul_bias f4 [10]
000000 83 6e f0 bc 95 ed bd bc 9b 85 12 be eb e4 3c be
       -0.029349571 -0.023184577 -0.14308779 -0.184467
000010 22 e6 4e 3e 47 49 ef 3c 92 ca 15 3c 2b 06 bc bd
       0.20204976 0.029209746 0.009142535 -0.09180864
000020 1d 86 0e 3e 36 61 5f 3d
       0.13918348 0.054536067
